checkpoint_critic.pth (torch_old, 447330 bytes, 5 tensors)

fcs1.weight f4 [350, 33]
-0.04797119 0.012855749 0.025464438 -0.076009385 0.24572979 0.0011128788 0.011766741 -0.034219682
-0.0139819775 0.03683973 0.03367635 -0.011840047 0.05524016 0.044105917 -0.021422122 -0.020268189
0.104732275 0.09032236 -0.018726902 -0.11675569 0.006804958 0.024305306 -0.01330354 0.0447347
0.043169096 0.0077094166 -0.022312567 0.020243507 -0.024517927 0.04032695 -0.091193445 0.0056314617
0.22200727 0.002769457 0.00027012243 -0.033527315 0.14698623 0.27634722 -0.1165455 0.0853143
-0.016848912 0.013753501 -0.020177826 0.014145425 0.023541851 0.04492309 -0.050095584 -0.018322678
0.08526899 -0.075412974 0.2817749 0.12052819 0.055030018 0.004147176 -0.023719896 -0.017926553
-0.010965163 0.046296462 -0.013430128 0.041456737 0.025886012 -0.0208712 0.037291627 -0.030017903
0.02828366 -0.011420561 -0.118205465 0.11650215 0.016315207 0.07225984 0.029374402 0.20104183
-0.22580487 -0.035141807 0.05885021 -0.073105216 -0.049940288 0.04947767 0.028068263 0.033709463
0.1172671 0.021495136 0.009887285 -0.29165122 -0.025709052 0.05903281 0.009146136 0.010197749
-0.00072439294 -0.048440985 0.032378364 0.03723013 -0.024926819 0.041682214 -0.010286798 0.0053949356
-0.00910105 -0.011956621 -0.09769962 -0.0159543 -0.06414452 0.007779091 -0.09789522 0.09637239
0.016871916 -0.08829227 0.03312472 -0.051539052 0.08280401 -0.048904214 0.045766644 0.024817327
-0.02122718 0.10063981 -0.093402304 -0.048960093 0.094956905 -0.18693219 -0.04581271 -0.027487757
-0.02691147 0.018560106 -5.05015e-05 0.028604055 0.03381554 0.0066698818 0.0946694 0.057760384
0.037234697 -0.023849139 0.01901896 -0.033269864 0.085557505 -0.020090535 0.038667504 0.0024586988
-0.05238019 0.1488179 -0.0017739617 -0.014268995 0.03347473 -0.052735012 0.06569913 0.07109021
0.023008613 0.020504635 -0.008444201 -0.07937682 0.017945498 -0.050202385 -0.07621104 -0.15591918
-0.010697252 -0.04659399 0.028616901 0.047937453 0.027489606 0.026214272 0.010976229 0.18189758
0.0634917 0.0033297054 -0.13450412 -0.0045664646 0.050383657 0.010361701 -0.039944787 0.023998665
0.2520705 -0.026961725 -0.017078798 0.048507527 -0.057510003 0.028699495 0.052370533 0.021378731
-0.0012010006 0.007905902 -0.017079188 0.038022056 -0.03712474 0.04513097 0.1638749 0.18755324
-0.027395021 0.0082498025 -0.04064719 0.02617724 0.032814384 -0.011328819 -0.0146864895 0.009903375
0.05933619 -0.0796289 -0.051679622 -0.1275906 0.0342894 -0.032273334 0.011710612 -0.10254558
0.025476865 0.20540415 -0.27243885 0.09233921 0.11587991 0.0023531127 -0.09205171 0.02933681
-0.017381234 0.011701413 0.043834046 0.037450727 0.09855387 -0.022576217 -0.035960432 -0.19781761
0.06932233 0.014862958 -0.05622292 0.015956474 0.034219936 -0.05375795 0.01222118 0.009893328
-0.032358002 0.042676263 0.036516134 0.052429948 -0.014438211 0.04340907 0.10527875 0.103896245
0.05915279 -0.020777028 -0.040635142 -0.046055336 0.018837944 0.053158417 0.01090229 0.102643386
0.080480516 -0.039891243 0.019389737 -0.028279288 -0.056119952 -0.04611202 -0.059937794 0.11364221
0.0071236156 0.045464043 0.059211094 -0.020510737 -0.021161374 -0.029425958 0.04380794 -0.036644552
00000000: 707d 44bd eba0 523c cc9a d03c cfaa 9bbd
00000010: 97a0 7b3e 04de 913a 4ac9 403c f029 0cbd
00000020: aa14 65bc 42e5 163d 36f0 093d c2fc 41bc
00000030: 8243 623d 68a8 343d 727d afbc 7909 a6bc
00000040: e07d d63d eefa b83d 2969 99bc 9b1d efbd
00000050: 20fc de3b ec1b c73c 17f7 59bc bc3b 373d
00000060: 14d2 303d 469f fc3b d8c8 b6bc b6d5 a53c
00000070: d2d9 c8bc df2d 253d a1c3 babd 2088 b83b
00000080: e055 633e c77f 353b 389f 8d39 f053 09bd
00000090: 8f83 163e 627d 8d3e 68af eebd 44b9 ae3d
000000a0: bb06 8abc 5d56 613c f84b a5bc 36c2 673c
000000b0: d7da c03c 4601 383d 0731 4dbd 7119 96bc
000000c0: 82a1 ae3d 1e72 9abd cd44 903e 7cd7 f63d
000000d0: 2867 613d 09e5 873b 3a50 c2bc b5da 92bc
000000e0: 3aa7 33bc 5ca1 3d3d 0a0a 5cbc 8ace 293d
000000f0: e70e d43c 14fa aabc 1bbf 183d 1be8 f5bc
00000100: 22b3 e73c 4e1d 3bbc b515 f2bd ae98 ee3d
00000110: 78a7 853c f8fc 933d 96a2 f03c e9dd 4d3e
00000120: 6439 67be dbf0 0fbd eb0c 713d 30b8 95bd
00000130: 308e 4cbd 19a9 4a3d 6aef e53c ef12 0a3d
00000140: bc29 f03d 9116 b03c 47fe 213c 4f53 95be
00000150: ca9b d2bc 63cc 713d add9 153c 7614 273c
00000160: 30e5 3dba 0e6a 46bd 2d9f 043d 9f7e 183d
00000170: 5433 ccbc f8ba 2a3d f589 28bc 00c8 b03b
00000180: 921c 15bc b4e5 43bc bd16 c8bd 98b2 82bc
00000190: 345e 83bd bfe7 fe3b 4a7d c8bd e35e c53d
000001a0: f936 8a3c 94d2 b4bd c9ad 073d 9d1a 53bd
000001b0: 2695 a93d c94f 48bd ce75 3b3d b54d cb3c
000001c0: 9fe4 adbc 3f1c ce3d b549 bfbd 618a 48bd
000001d0: c478 c23d 276b 3fbe 1ca6 3bbd 012e e1bc
000001e0: 7175 dcbc 5d0b 983c 93d1 53b8 0d53 ea3c
000001f0: 2a82 0a3d 068f da3b 08e2 c13d 2796 6c3d
00000200: 6983 183d 455f c3bc a6cd 9b3c fb45 08bd
00000210: c638 af3d e894 a4bc d161 1e3d 1f22 213b
00000220: 9c8c 56bd b863 183e 4784 e8ba 81c8 69bc
00000230: cc1c 093d ab00 58bd 448d 863d be97 913d
00000240: 8f7c bc3c 56f9 a73c 8c59 0abc 5090 a2bd
00000250: 7002 933c 04a1 4dbd 8914 9cbd 47a9 1fbe
00000260: 8743 2fbc 57d9 3ebd fe6d ea3c 105a 443d
00000270: e231 e13c 50bf d63c a4d5 333c 5c43 3a3e
00000280: f007 823d 3037 5a3b 73bb 09be 48a2 95bb
00000290: 185f 4e3d 20c4 293c 259d 23bd d998 c43c
000002a0: 620f 813e d6de dcbc d6e8 8bbc d4af 463d
000002b0: 9c8f 6bbd 341b eb3c 7c82 563d 7322 af3c
000002c0: e56a 9dba c287 013c a7e9 8bbc 04bd 1b3d
000002d0: 1d10 18bd 41db 383d d2ce 273e f50d 403e
000002e0: 866b e0bc 2e2a 073c ab7d 26bd a771 d63c
000002f0: 6068 063d 839c 39bc 9a9f 70bc c441 223c
00000300: 810a 733d 7a14 a3bd 03ae 53bd 1ca7 02be
00000310: 0b73 0c3d 0b31 04bd dedd 3f3c 6b03 d2bd
00000320: dcb4 d03c 7755 523e 1b7d 8bbe 571c bd3d
00000330: 7252 ed3d ae36 1a3b 9b85 bcbd c053 f03c
00000340: 1763 8ebc 49b7 3f3c 548b 333d ef65 193d
00000350: 9dd6 c93d c2f1 b8bc 3f4b 13bd b390 4abe
00000360: def8 8d3d c483 733c 014a 66bd 27b7 823c
00000370: 342a 0c3d 4c31 5cbd 583b 483c a017 223c
00000380: d389 04bd 4ecd 2e3d f191 153d c9c0 563d
00000390: 3f8e 6cbc b5cd 313d 639c d73d 8ec7 d43d
000003a0: 324a 723d 9634 aabc 0971 26bd 85a4 3cbd
000003b0: 0852 9a3c a4bc 593d 859f 323c b236 d23d
000003c0: f8d2 a43d 0065 23bd 3ad7 9e3c f7a9 e7bc
000003d0: 09de 65bd f5df 3cbd 5581 75bd 3fbd e83d
000003e0: 386d e93b 8138 3a3d 5587 723d 2206 a8bc
000003f0: 9e5a adbc b50e f1bc f46f 333d 9918 16bd

fcs1.bias f4 [350]
-0.17788605 -0.15321 -0.119202964 -0.13840967 -0.096356444 -0.11198755 -0.05211867 -0.09204529
-0.13172872 0.050757807 0.07719117 0.04740632 -0.14555827 -0.16956423 0.0927998 -0.004424754
0.026574247 0.13833286 0.0762711 -0.1950514 -0.146974 -0.13979314 -0.24268034 -0.1316246
-0.17282695 0.086034626 -0.15007322 -0.16860218 0.12461034 -0.061509363 -0.065481685 -0.018531378
-0.14344993 -0.08189166 0.13349366 0.025855564 -0.027261633 0.04703602 0.040543806 0.039432134
0.0002772182 0.124136634 -0.13106947 -0.19615546 -0.071035676 0.12228199 0.09806049 -0.14149237
-0.17676145 0.08427648 -0.17583634 -0.09401584 -0.13473327 0.14681469 -0.12413793 -0.22466496
-0.23684348 -0.14916663 -0.16033524 0.110515706 -0.025069905 0.09024453 -0.15189789 -0.14331244
0.0060139787 -0.11539122 -0.25488138 -0.030092062 -0.16566768 0.044297807 0.04503733 -0.060411625
-0.22416738 -0.10816468 -0.17763218 0.0666153 0.12386047 0.13237329 -0.20730942 0.10654457
0.014450387 -0.055183265 0.010816737 0.082060665 0.04719351 -0.033082224 -0.11047905 -0.21207945
-0.077261366 -0.12719068 0.10363308 -0.016553303 -0.0005452527 -0.14311399 -0.028941667 0.060484692
-0.18168378 -0.0141876945 -0.08005043 -0.00556862 -0.06870155 -0.16078779 -0.23984131 0.088250816
0.09448756 -0.1806476 -0.16910928 0.0926224 -0.107204184 -0.07728585 0.15693958 -0.12542416
0.101784356 0.033785738 -0.07242616 -0.14946097 -0.04159577 -0.017515067 -0.05266114 -0.08746996
-0.07531377 0.148349 0.062618785 0.06740376 -0.095561124 -0.062331527 -0.14604616 -0.030418504
-0.08530599 -0.060868178 -0.06959867 0.1351481 -0.040543035 -0.07980619 0.0691641 -0.12677534
0.0971356 -0.06806215 0.06816917 0.034146298 0.02847636 0.098118134 0.12239622 0.01341063
-0.10570814 0.091100164 -0.1234413 -0.0058425516 0.070365295 0.083574146 0.005795353 0.014305921
0.08956769 -0.1473331 -0.17703736 -0.14129795 0.09722957 -0.04677916 -0.08284408 0.07026937
0.0477599 -0.11475394 -0.06702348 -0.20220754 -0.1327547 -0.015308455 -0.049929414 0.15028223
0.010952318 0.004827314 -0.031868435 0.0056543197 -0.10978849 -0.1305694 0.11135532 -0.02297953
0.08361511 0.08388274 -0.16993749 -0.16205034 0.069914296 -0.06899666 0.0051713334 -0.060728967
0.10244066 -0.12478967 -0.15822934 -0.23078449 0.011898565 -0.103164226 -0.07673224 -0.09807037
0.04494928 0.12546092 -0.17818992 0.018429354 -0.037379038 -0.054505188 -0.22805487 -0.18264003
-0.10453652 0.08533615 0.015384327 -0.1571999 0.07007743 -0.11251951 -0.15489936 0.0009056369
-0.14390218 0.14528444 -0.099194564 -0.027913721 -0.14204484 -0.24003245 -0.040802956 0.12849621
0.0067063593 -0.042296525 0.015109886 0.010308739 0.05024149 -0.13590834 -0.06438571 -0.21826409
-0.13959922 -0.006122333 -0.10782801 -0.03730891 -0.0023336601 0.065105945 -0.1140633 0.09911943
0.041714944 0.16729924 -0.17207386 -0.10937793 0.029939694 0.008763144 -0.16200697 -0.036102027
0.010950886 -0.04744025 -0.059681255 -0.154625 -0.12032625 0.05377285 -0.13871999 0.09776642
0.038958464 -0.097031206 -0.17842619 0.097249836 -0.10760311 -0.19808334 -0.00088705984 -0.13347891
00000000: c327 36be 15e3 1cbe af20 f4bd 44bb 0dbe
00000010: 8756 c5bd bb59 e5bd 637a 55bd 3e82 bcbd
00000020: e5e3 06be 6be7 4f3d 6716 9e3d 212d 423d
00000030: 3a0d 15be 3fa2 2dbe d20d be3d 87fd 90bb
00000040: 3cb2 d93c 21a7 0d3e 0634 9c3d 8ebb 47be
00000050: 5a80 16be ef25 0fbe 3281 78be 99c8 06be
00000060: 8cf9 30be ec32 b03d cbac 19be 0da6 2cbe
00000070: b533 ff3d 3ef1 7bbd 431b 86bd 1ecf 97bc
00000080: 8ae4 12be d1b6 a7bd 90b2 083e 0ccf d33c
00000090: ca53 dfbc d7a8 403d 4311 263d 9783 213d
000000a0: 9957 9139 593b fe3d 1337 06be fadc 48be
000000b0: 277b 91bd fb6e fa3d f0d3 c83d 60e3 10be
000000c0: f400 35be 2699 ac3d 710e 34be 608b c0bd
000000d0: 85f7 09be 9756 163e 073c febd 920e 66be
000000e0: 1987 72be 23bf 18be ec2e 24be 0f56 e23d
000000f0: 675f cdbc 20d2 b83d 1f8b 1bbe 7fc0 12be
00000100: e910 c53b 3b52 ecbd d07f 82be a183 f6bc
00000110: caa4 29be 9e71 353d 1079 383d 2e72 77bd
00000120: 228c 65be 7285 ddbd 36e5 35be 9a6d 883d
00000130: 8faa fd3d dd8c 073e ec48 54be 0a34 da3d
00000140: 51c1 6c3c d907 62bd af38 313c 6c0f a83d
00000150: fb4d 413d 3a81 07bd d742 e2bd 5b2b 59be
00000160: 353b 9ebd 463e 02be 953d d43d cb9a 87bc
00000170: 4aef 0eba 798c 12be 1317 edbc ccbe 773d
00000180: 500b 3abe 8173 68bc 7bf1 a3bd f878 b6bb
00000190: 66b3 8cbd 8ea5 24be f698 75be d8bc b43d
000001a0: b282 c13d affb 38be fc2a 2dbe d0b0 bd3d
000001b0: de8d dbbd 0b48 9ebd c5b4 203e 316f 00be
000001c0: 5174 d03d ea62 0a3d 2b54 94bd 4c0c 19be
000001d0: 5360 2abd c27b 8fbc 35b3 57bd 7323 b3bd
000001e0: 1b3e 9abd cde8 173e 473e 803d fc0a 8a3d
000001f0: 8db5 c3bd 584f 7fbd 208d 15be 3a30 f9bc
00000200: e8b4 aebd e950 79bd bf89 8ebd 4364 0a3e
00000210: 7410 26bd 6e71 a3bd e8a5 8d3d 65d1 01be
00000220: 08ef c63d 2b64 8bbd 479c 8b3d fddc 0b3d
00000230: 4147 e93c 29f2 c83d dfaa fa3d 42b8 5b3c
00000240: 827d d8bd b992 ba3d cbce fcbd e072 bfbb
00000250: ae1b 903d ec28 ab3d f2e6 bd3b 6263 6a3c
00000260: 446f b73d 7dde 16be 4849 35be 69b0 10be
00000270: 4c20 c73d 819b 3fbd 28aa a9bd 63e9 8f3d
00000280: e39f 433d 1d04 ebbd 9b43 89bd 7e0f 4fbe
00000290: d9f0 07be 50d0 7abc c982 4cbd 96e3 193e
000002a0: 5a71 333c 722e 9e3b 7a88 02bd df47 b93b
000002b0: cad8 e0bd fcb3 05be 420e e43d 913f bcbc
000002c0: 663e ab3d b7ca ab3d 1804 2ebe 86f0 25be
000002d0: 3a2f 8f3d 1f4e 8dbd 4a74 a93b f0be 78bd
000002e0: 69cc d13d ba91 ffbd df06 22be c552 6cbe
000002f0: 33f2 423c c447 d3bd cb25 9dbd 1ed9 c8bd
00000300: bc1c 383d d478 003e 6b77 36be 28f9 963c
00000310: c31a 19bd d540 5fbd 3787 69be fd05 3bbe
00000320: 3e17 d6bd b8c4 ae3d 8b0e 7c3c 03f9 20be
00000330: c184 8f3d a170 e6bd f09d 1ebe 4368 6d3a
00000340: 185b 13be 72c5 143e 8526 cbbd 51ab e4bc
00000350: 3474 11be 11cb 75be 0021 27bd 8394 033e
00000360: 05c1 db3b 1f3f 2dbd 758f 773c fce5 283c
00000370: 05ca 4d3d 8e2b 0bbe a8dc 83bd 9f80 5fbe
00000380: 19f3 0ebe da9d c8bb efd4 dcbd 3ad1 18bd
00000390: 52f0 18bb 4456 853d 059a e9bd 21ff ca3d
000003a0: 4add 2a3d 7e50 2b3e 2134 30be 8901 e0bd
000003b0: 1744 f53c 4a93 0f3c 28e5 25be b8df 13bd
000003c0: 586b 333c b550 42bd 5574 74bd 0456 1ebe
000003d0: 9c6d f6bd ec40 5c3d 9d0c 0ebe c339 c83d
000003e0: e992 1f3d 4cb8 c6bd 5bb5 36be ec2a c73d
000003f0: 055f dcbd 5cd6 4abe 9489 68ba b2ae 08be

fc2.weight f4 [280, 354]
0.023444658 0.041069057 -0.058742452 -0.07561804 0.0035515164 0.099169075 0.039534796 -0.077078976
-0.020933615 0.029702244 0.0009193377 -0.10423619 -0.14520779 -0.101244256 -0.25660425 0.036929756
-0.019255027 0.0049106893 0.026200486 -0.025896637 0.08220754 -0.0015607013 -0.10918916 0.037110467
-0.018194608 -0.07232629 -0.06825257 -0.01911924 -0.03315886 0.014066121 -0.026869161 0.005334157
-0.010030709 -0.028834794 0.02590213 0.0024697038 0.001647715 -0.049377076 -0.034952294 0.06494121
-0.049088437 -0.065794915 0.029852701 -0.029315058 -0.01663071 -0.041989785 -0.0039655003 -0.025434637
0.017840458 0.038911164 -0.10366449 -0.06365528 0.0032328633 0.07254142 0.018172575 0.015792832
0.011830435 -0.012736087 -0.006824405 -0.059427373 -0.0019035868 -0.006676828 -0.008982674 0.0029508169
0.13802 0.07311407 -0.048570275 -0.13913229 -0.02661442 -0.0023565462 0.0034617514 -0.04808803
-0.08613675 0.069566526 -0.0075561004 -0.11821923 0.017579198 -0.009300955 -0.102831475 0.04716189
0.15290914 -0.008826465 -0.017011316 -0.018915966 0.010647228 0.081681505 0.027861375 -0.0274583
-0.18060212 -0.022763975 0.031841543 0.039151162 0.0281547 -0.001882938 -0.10671595 0.000251546
-0.09063783 -0.084570706 -0.015151873 -0.029312346 0.102882996 0.0934837 -0.044778854 0.026614971
-0.008687136 0.084843226 0.08216595 -0.044525396 -0.048414256 0.03734533 0.021532852 -0.04985697
0.045680024 -0.05697798 0.06597198 -0.012121961 -0.0039188173 -0.026796218 0.010890609 -0.1116843
-0.017592706 -0.028679527 0.062498428 0.08314559 -0.04125397 0.033128984 0.06706067 0.036972906
-0.11321197 -0.0008462664 -0.090171486 -0.03247321 -0.009620413 0.051204726 0.07156792 -0.01637378
0.019401046 -0.058126602 -0.043890644 -0.09040512 -0.028826246 0.037210204 -0.0042128186 0.0029807386
-0.019745542 -0.014429212 -0.08091195 0.020384707 -0.022120366 0.006523593 -0.014372252 -0.09318466
2.50334e-05 -0.01728402 0.025566308 0.010712127 -0.044097014 -0.00808672 0.01607176 -0.017845212
-0.10301742 -0.068018906 -0.043041307 0.022374123 -0.10766307 -0.046329193 -0.07606495 -0.092453435
-0.024691308 0.015495977 -0.06398324 0.03945283 0.037848096 0.035939068 -0.04867389 0.0460936
0.043167055 -0.03379515 -0.0994678 -0.017113274 0.03572333 -0.016775943 -0.057914063 -0.06411274
0.018552503 0.03395519 0.03079115 0.061533593 -0.062685676 -0.0031973731 0.0019735564 0.014388104
-0.0034741 -0.10229415 0.07390643 0.06505906 0.098990716 -0.00028390202 0.035851743 -0.31369418
-0.028663581 0.06908685 -0.035657797 0.040782463 -0.11843608 -0.024351493 -0.09127297 0.019804236
0.022297688 0.004264514 -0.024834706 -0.07420391 -0.0336364 0.014482616 -0.025501365 -0.048449434
0.1297483 0.021123894 -0.007853497 0.040973447 -0.07658208 0.038365725 0.047723863 -0.011591766
-0.0785793 -0.12811227 0.043480806 0.055788014 0.009104136 0.002011469 -0.23811038 -0.034554515
-0.09242822 -0.032770213 -0.017045172 0.051598795 -0.0022514353 0.003195056 -0.09274356 -0.08453597
0.039008837 -0.060002845 0.0065668016 0.027457114 -0.101490565 -0.013547876 -0.039872307 -0.05031615
-0.11143829 -0.08509838 0.113077015 0.060382467 -0.023895664 0.10335069 0.0927888 0.10048241
00000000: 030f c03c 0738 283d ed9b 70bd a2dd 9abd
00000010: 8fc0 683b 2819 cb3d 3def 213d 95db 9dbd
00000020: f97c abbc 1f52 f33c b5ff 703a c979 d5bd
00000030: 5ab1 14be 2659 cfbd a261 83be a843 173d
00000040: b8bc 9dbc d9e9 a03b 67a2 d63c 2f25 d4bc
00000050: 6d5c a83d 7290 ccba 919e dfbd 2501 183d
00000060: dc0c 95bc ce1f 94bd 01c8 8bbd f49f 9cbc
00000070: 96d1 07bd 9675 663c b71c dcbc 27ca ae3b
00000080: d857 24bc f236 ecbc b430 d43c c1da 213b
00000090: 24f8 d73a 9e3f 4abd 232a 0fbd e6ff 843d
000000a0: f510 49bd 7cbf 86bd a78d f43c 2226 f0bc
000000b0: 203d 88bc 7bfd 2bbd 07f1 81bb 4d5c d0bc
000000c0: 2726 923c 5061 1f3d 0c4e d4bd b35d 82bd
000000d0: 72de 533b 9990 943d a7de 943c f85f 813c
000000e0: 71d4 413c 05ab 50bc 429f dfbb 1e6a 73bd
000000f0: c681 f9ba 4bc9 dabb 112c 13bc 7e62 413b
00000100: 1d55 0d3e d4bc 953d a0f1 46bd b278 0ebe
00000110: 7c06 dabc 4970 1abb 8dde 623b f4f7 44bd
00000120: 7768 b0bd e578 8e3d 2a99 f7bb ec1c f2bd
00000130: 4002 903c 0863 18bc 4f99 d2bd d32c 413d
00000140: 3794 1c3e e19c 10bc 515b 8bbc a8f5 9abc
00000150: b671 2e3c a248 a73d 8a3d e43c 3bf0 e0bc
00000160: c3ef 38be 847b babc 476c 023d f85c 203d
00000170: afa4 e63c eacc f6ba e48d dabd efe1 8339
00000180: 54a0 b9bd 6833 adbd 903f 78bc 7220 f0bc
00000190: 52b4 d23d 6274 bf3d 086a 37bd a407 da3c
000001a0: 7d54 0ebc 49c2 ad3d 9f46 a83d 4360 36bd
000001b0: 074e 46bd 6bf7 183d aa65 b03c d236 4cbd
000001c0: fa1a 3b3d be61 69bd 511c 873d 319b 46bc
000001d0: 6c69 80bb be83 dbbc 866e 323c bdba e4bd
000001e0: 941e 90bc 54f1 eabc 5afe 7f3d 3c48 aa3d
000001f0: ecf9 28bd 42b2 073d 1b57 893d e770 173d
00000200: addb e7bd fad7 5dba d4ab b8bd a102 05bd
00000210: f09e 1dbc 0cbc 513d 3492 923d 4e22 86bc
00000220: f1ee 9e3c 2916 6ebd adc6 33bd 5226 b9bd
00000230: 0525 ecbc ba69 183d af0b 8abb 7f58 433b
00000240: 67c1 a1bc 8068 6cbc 2ab5 a5bd d4fd a63c
00000250: c535 b5bc ddc3 d53b 9879 6bbc 99d7 bebd
00000260: d1fe d137 3897 8dbc 6f70 d13c eb81 2f3c
00000270: 129f 34bd 297e 04bc eca8 833c 1f30 92bc
00000280: ccfa d2bd 7f4d 8bbd 154c 30bd f049 b73c
00000290: 757e dcbd aec3 3dbd f1c7 9bbd 3a58 bdbd
000002a0: 6d45 cabc d7e2 7d3c a509 83bd 4a99 213d
000002b0: 9b06 1b3d d834 133d 465e 47bd a5cc 3c3d
000002c0: f0cf 303d c96c 0abd c6b5 cbbd 2331 8cbc
000002d0: a052 123d b46d 89bc 4c37 6dbd 8a4d 83bd
000002e0: 6bfb 973c 9914 0b3d b93d fc3c a60a 7c3d
000002f0: 5961 80bd 058b 51bb c856 013b 15bc 6b3c
00000300: baad 63bb 987f d1bd 415c 973d af3d 853d
00000310: a5bb ca3d afd8 94b9 47d9 123d 869c a0be
00000320: e3cf eabc 687d 8d3d e90d 12bd 830b 273d
00000330: 9e8e f2bd c87c c7bc 53ed babd 7e3c a23c
00000340: a4a9 b63c 56bd 8b3b 2772 cbbc 38f8 97bd
00000350: 52c6 09bd 7f48 6d3c 3de8 d0bc ea72 46bd
00000360: bddc 043e 040c ad3c f4ab 00bc c6d3 273d
00000370: 11d7 9cbd 6125 1d3d 197a 433d 64eb 3dbc
00000380: 2fee a0bd dd2f 03be ee18 323d f981 643d
00000390: 8429 153c dad2 033b 35d3 73be 0989 0dbd
000003a0: 024b bdbd 0f3a 06bd 51a2 8bbc 4259 533d
000003b0: d18c 13bb 2564 513b 56f0 bdbd 3221 adbd
000003c0: bbc7 1f3d 8bc5 75bd 532e d73b beed e03c
000003d0: 49da cfbd e9f7 5dbc 2551 23bd 4f18 4ebd
000003e0: c239 e4bd 0f48 aebd ec94 e73d 9b53 773d
000003f0: d7c0 c3bc 87a9 d33d 0e08 be3d b9c9 cd3d

fc2.bias f4 [280]
-0.0008931871 0.0028905638 -0.011255883 0.06450106 -0.026910739 0.053717848 0.018603878 -0.0052960836
0.07744686 0.0038561034 0.07036806 -0.00408506 0.0297124 0.063714825 0.0152501995 -0.011720018
0.004551546 0.019057658 -0.038821004 0.008072884 0.055530775 0.0050633484 -0.013162933 -0.039937567
0.023084218 -0.06450647 0.022762943 0.009251709 -0.012036945 0.021262942 0.006037237 0.061934855
0.004586094 0.004214037 0.028219318 0.018384792 0.035457715 0.027431618 -0.07135393 0.026935987
0.032079477 -0.020560263 0.09085781 0.0103789745 0.015462828 -0.04861524 0.015690813 -0.02895527
0.03641219 0.021153806 0.061582465 0.017766437 -0.05653296 0.046300236 0.00017305679 -0.0134139145
-0.044657346 -0.007907775 -0.040433712 0.047188435 0.04878028 0.06645271 0.008643713 0.033832163
0.021143498 0.046577044 -0.03618117 -0.041665908 0.013488459 -0.0129859485 -0.007180528 0.045448076
-0.045443702 -0.00844521 -0.019159606 0.059274405 0.0032487041 0.022904128 -0.0021645746 0.015159077
0.038441412 0.0023563083 -0.0324119 0.015702724 0.08056436 0.0079839965 -0.043055955 -0.031868167
0.048238944 0.013827259 0.027028976 0.030907836 -0.018287923 -0.057970103 -0.014517444 0.0073074265
0.033780105 0.02685121 -0.03113468 0.0072513185 0.021754557 0.015266447 0.07618107 0.019364875
-0.0049493164 0.0073252753 0.016782183 -0.041079268 0.03272644 0.012069663 0.0031816626 -0.068484865
0.030288309 0.00065458263 0.02364629 0.050940353 -0.025721978 0.061832316 0.0688116 0.03162324
0.03172541 0.004015569 0.0016843092 -0.005787106 0.021982444 0.055525787 0.0704994 -0.023106031
-0.061780725 0.045272067 0.012638417 -0.0022032894 0.0047673704 0.01629294 0.038488586 0.01655783
0.0027186982 0.04559745 0.03728701 -0.018838037 -0.005827124 0.009846669 -0.0075181923 0.010102217
-0.028196156 -0.008253178 0.092770755 -0.0058054146 0.012121998 -0.05816109 0.08832468 0.0058177277
0.05192352 0.049041286 -0.005769155 0.023707636 0.043548457 0.043474473 0.04387646 -0.024727898
0.012123301 0.04355655 0.066572644 -0.011423722 0.09026405 0.009160596 0.047943074 0.0053521506
0.022692706 0.005217733 0.009922964 -0.021385472 0.052777667 0.01654187 0.08638002 0.04595968
-0.04471282 0.06602647 0.046044704 -0.042698435 -0.014368232 0.06929894 -0.06144847 0.012933724
0.02781581 0.002986221 0.004641048 -0.03137899 0.0044898777 -0.020025847 -0.0039118514 -0.048695814
0.0661855 -0.057362076 0.07975076 -0.0005680358 -0.0065671154 0.069152795 0.057052083 -0.022806827
0.007883386 0.002697465 0.041052956 -0.03826373 -0.031086523 0.07392895 -0.015046599 0.03356586
0.04731884 -0.03861009 0.027782068 -0.0303485 0.08091303 0.015292415 0.082170226 0.012369919
0.01568672 -0.03290236 -0.03548829 0.041273214 0.091212265 0.033112723 0.053805735 0.04496566
-0.01015905 0.06691104 -0.004189037 -0.0048009586 0.003904542 0.06346324 -0.0023147329 -0.051403746
0.010023068 0.075438485 0.029609887 0.06575153 0.05258235 0.06855981 -0.0028138638 0.101118036
0.0125363385 0.05493755 -0.002793829 0.05535833 0.060790345 0.06976465 -0.043088723 -0.027628971
0.049547445 -0.015825232 0.06587223 0.06496501 -0.034188595 -0.010549121 0.05427138 0.020993322
00000000: c624 6aba 9d6f 3d3b 986a 38bc 2219 843d
00000010: e973 dcbc 3f07 5c3d 2967 983c c58a adbb
00000020: 769c 9e3d aeb6 7c3b 211d 903d f8db 85bb
00000030: 6b67 f33c eb7c 823d f9db 793c 5205 40bc
00000040: 2325 953b ce1e 9c3c c602 1fbd 2144 043c
00000050: 3d74 633d 72ea a53b 58a9 57bc 9395 23bd
00000060: 1d1b bd3c f81b 84bd 5a79 ba3c 7b94 173c
00000070: 9b36 45bc 9f2f ae3c 04d4 c53b 67af 7d3d
00000080: f246 963b e815 8a3b 332c e73c b49b 963c
00000090: 1c3c 113d 46b8 e03c 0222 92bd dca8 dc3c
000000a0: c565 033d ff6d a8bc a913 ba3d 930c 2a3c
000000b0: cd57 7d3c c620 47bd 058a 803c 9a33 edbc
000000c0: f324 153d bf4a ad3c e53d 7c3d eb8a 913c
000000d0: 1b8f 67bd 51a5 3d3d 9476 3539 09c6 5bbc
000000e0: 9fea 36bd 9d8f 01bc d29d 25bd a948 413d
000000f0: d5cd 473d 5c18 883d 5c9e 0d3c 9893 0a3d
00000100: 2135 ad3c 92c7 3e3d b532 14bd dfa9 2abd
00000110: b3fe 5c3c 04c3 54bc a24a ebbb c327 3a3d
00000120: 2d23 3abd c75d 0abc 9bf4 9cbc b8c9 723d
00000130: 36e8 543b 70a1 bb3c 89db 0dbb c75d 783c
00000140: be74 1d3d 4b6c 1a3b 57c2 04bd 00a3 803c
00000150: edfe a43d 4fcf 023c 715b 30bd 3288 02bd
00000160: 3396 453d ba8b 623c df6b dd3c 6e32 fd3c
00000170: 8ed0 95bc 0f72 6dbd 93da 6dbc 2373 ef3b
00000180: 025d 0a3d 12f7 db3c 280e ffbc 789c ed3b
00000190: 9d36 b23c 1f20 7a3c d204 9c3d 16a3 9e3c
000001a0: e02d a2bb dd08 f03b ca7a 893c bc42 28bd
000001b0: 290c 063d d6bf 453c 7183 503b cb41 8cbd
000001c0: 301f f83c 4c98 2b3a ddb5 c13c d5a6 503d
000001d0: e6b6 d2bc e243 7d3d 19ed 8c3d 5f87 013d
000001e0: 81f2 013d 0995 833b 0ac4 dc3a c4a1 bdbb
000001f0: 8714 b43c 026f 633d fd61 903d dc48 bdbc
00000200: c90d 7dbd 346f 393d 5d11 4f3c 1065 10bb
00000210: 9a37 9c3b c678 853c 35a6 1d3d 49a4 873c
00000220: 302c 323b 64c4 3a3d 44ba 183d 3a52 9abc
00000230: 76f1 bebb ec53 213c 2b5b f6bb c583 253c
00000240: a0fb e6bc 5638 07bc 98fe bd3d 593b bebb
00000250: 589b 463c 533a 6ebd 92e3 b43d a3a2 be3b
00000260: c2ad 543d 84df 483d 2e0b bdbb 8436 c23c
00000270: de5f 323d 4a12 323d ceb7 333d 2992 cabc
00000280: cfa0 463c 5a68 323d 3d57 883d 902a 3bbc
00000290: 5cdc b83d 5316 163c f55f 443d 1861 af3b
000002a0: 0ee6 b93c 84f9 aa3b ed93 223c 9630 afbc
000002b0: 652d 583d d182 873c 02e8 b03d 3840 3c3d
000002c0: ca24 37bd e338 873d 5f99 3c3d 8ee4 2ebd
000002d0: bc68 6bbc 9aec 8d3d 64b1 7bbd f8e7 533c
000002e0: fbdd e33c 7ab4 433b ef13 983b 4187 00bd
000002f0: d31f 933b 3f0d a4bc fd2e 80bb 4375 47bd
00000300: 438c 873d 7ff4 6abd 5e54 a33d 3de8 14ba
00000310: f530 d7bb fb9f 8d3d 72af 693d 62d5 babc
00000320: 5129 013c f4c7 303b 2527 283d 6eba 1cbd
00000330: 2aa9 febc 1068 973d 0386 76bc 5b7c 093d
00000340: 66d1 413d 9d25 1ebd 3897 e33c 6b9d f8bc
00000350: bbb5 a53d 0a8d 7a3c dd48 a83d 33ab 4a3c
00000360: 7081 803c a0c4 06bd 2b5c 11bd 1a0e 293d
00000370: 7fcd ba3d 35a1 073d 6763 5c3d e92d 383d
00000380: 2572 26bc a808 893d 3044 89bb 5c51 9dbb
00000390: 58e3 7f3b 04f9 813d c6b2 17bb bc8c 52bd
000003a0: cb37 243c 7e7f 9a3d 6f90 f23c bda8 863d
000003b0: 9760 573d 1669 8c3d cd68 38bb f916 cf3d
000003c0: 3765 4d3c 3206 613d ac18 37bb 6bbf 623d
000003d0: 4cff 783d c5e0 8e3d cd7d 30bd 2756 e2bc
000003e0: 43f2 4a3d eba3 81bc 05e8 863d 600c 853d
000003f0: 5709 0cbd 38d6 2cbc ab4b 5e3d 30fa ab3c

fc3.weight f4 [1, 280]
-0.14389022 0.03205415 -0.033363484 0.0519111 -0.028263085 0.046395842 -0.054760695 -0.031262074
0.019863242 -0.03975436 0.032394666 -0.06710654 -0.06390599 0.05389536 -0.030734219 0.0723873
-0.09445016 -0.12519534 -0.060849864 0.024889879 0.11354095 0.05534676 -0.04230785 -0.03554424
-0.026452513 -0.059226375 -0.053457964 0.09635053 -0.029436555 0.028832057 0.1664597 0.09019584
0.094513126 -0.16165276 -0.051485933 0.029399289 -0.025528071 -0.05323755 -0.048179917 0.18995555
0.039171685 -0.108951196 0.06052786 0.035324153 0.19260651 -0.16253914 0.07037925 -0.03631227
0.07491861 -0.075155705 0.02385619 -0.028706329 -0.028514696 0.14293282 -0.1423796 -0.07135228
-0.04536411 -0.15822396 -0.03234187 0.22840594 0.06554038 0.021066157 -0.12445948 0.20743129
0.18386543 -0.15771073 -0.028462749 0.2963116 0.030672021 -0.03309037 0.2864641 0.040349156
-0.07812317 -0.03373641 -0.12422344 0.17172785 -0.048855655 -0.031204734 0.06262381 -0.16549237
-0.12544917 -0.047145512 -0.023259139 -0.1489889 0.092681095 0.19909298 -0.09361228 -0.1273367
0.03842636 0.031850018 -0.13918307 0.060243275 -0.103585385 -0.021599568 0.21220128 -0.09042496
-0.026846897 0.08401787 -0.07425364 -0.08179539 0.09700701 0.16711254 0.058221254 -0.0821919
0.1132836 -0.08933242 0.030667797 -0.106712535 0.026258118 0.17547649 0.11284406 -0.0434749
0.13529558 0.019269079 -0.051190663 0.074157305 -0.048910588 0.059067264 0.036419548 0.05357577
0.07521563 0.18552591 -0.07787625 -0.061814956 -0.14899692 0.024071526 0.035222407 -0.041767865
-0.050466098 0.06561042 -0.26432207 -0.15141693 0.020852013 0.036966868 0.04294842 0.1447854
0.036082316 0.032140005 0.026490247 -0.1139251 0.18125021 -0.09256606 -0.1629434 -0.042468976
0.16387007 0.057948537 0.033211462 0.024179148 0.11609327 -0.061274875 0.096666284 -0.049542397
0.035670765 -0.034550253 -0.031432897 0.16887978 0.052280504 0.034771524 0.031774823 -0.05480035
-0.038449585 0.04416753 0.027320819 -0.025306422 0.12587686 -0.08147863 -0.050737493 -0.06321673
-0.043474324 -0.07218246 0.06676519 -0.11166804 -0.052634865 0.049055617 0.037602767 -0.15911955
-0.10810287 0.038347982 0.03825254 -0.15537164 -0.021990724 0.061386436 -0.098644525 0.09856363
0.029131543 -0.08596768 -0.06496367 -0.12495887 -0.16023801 -0.024653584 -0.09421143 -0.060150664
0.20449203 -0.02096064 0.062104955 -0.031473096 0.052259527 0.055579156 0.032557964 -0.14559902
0.055675715 0.09526606 0.061147854 -0.04099386 -0.063034765 0.10656283 -0.04449524 0.04511519
0.028152106 -0.029599959 -0.0863742 -0.082618706 0.028084435 -0.09823175 0.15758088 -0.0776791
0.1680818 -0.10793234 -0.027998194 -0.15907893 0.024331793 -0.26285228 0.12541221 -0.049991928
-0.020386443 0.03480449 -0.0988243 -0.19221327 -0.031556595 -0.08942226 0.035784427 -0.11266535
-0.0801406 0.14184669 0.18601152 0.19902904 0.14923555 0.027118634 -0.047608163 0.055474423
0.078286454 0.10609176 0.100476034 0.02290214 0.1148575 0.026529053 -0.044437043 -0.06236149
0.057967167 -0.10184612 0.042969566 0.046520833 -0.051237736 -0.05930113 0.027616294 0.019027924
00000000: f557 13be 364b 033d 26a8 08bd bca0 543d
00000010: fc87 e7bc 9109 3e3d c04c 60bd a90c 00bd
00000020: 3db8 a23c 78d5 22bd 45b0 043d 276f 89bd
00000030: 25e1 82bd 62c1 5c3d 54c6 fbbc cb3f 943d
00000040: 166f c1bd 3533 00be b53d 79bd dce5 cb3c
00000050: 2888 e83d 49b3 623d ff4a 2dbd d696 11bd
00000060: f1b2 d8bc 5b97 72bd bdf6 5abd 6d53 c53d
00000070: ee24 f1bc 3531 ec3c 6974 2a3e 99b8 b83d
00000080: 1990 c13d 4d88 25be eae2 52bd c7d6 f03c
00000090: 3f20 d1bc 9e0f 5abd 4e58 45bd b583 423e
000000a0: 7d72 203d ce21 dfbd 10ec 773d 0fb0 103d
000000b0: a43a 453e a970 26be ff22 903d 2dbc 14bd
000000c0: ee6e 993d 3ceb 99bd 0e6e c33c 8929 ebbc
000000d0: a797 e9bc fb5c 123e f5cb 11be 2521 92bd
000000e0: b8cf 39bd 7605 22be e978 04bd 3fe3 693e
000000f0: 093a 863d ef92 ac3c 9de4 febd de68 543e
00000100: 3847 3c3e ec7e 21be b62a e9bc 27b6 973e
00000110: e443 fb3c c589 07bd 6cab 923e 2845 253d
00000120: 0aff 9fbd 312f 0abd dc68 febd 6dd9 2f3e
00000130: de1c 48bd 12a1 ffbc e940 803d d576 29be
00000140: bf75 00be a71b 41bd f389 bebc 8c90 18be
00000150: 96cf bd3d 08df 4b3e ccb7 bfbd 8d64 02be
00000160: f564 1d3d 2a75 023d 0286 0ebe a7c1 763d
00000170: 9324 d4bd 94f1 b0bc 4b4b 593e b930 b9bd
00000180: 06ee dbbc 9011 ac3d 4b12 98bd 5784 a7bd
00000190: 9cab c63d 8d1f 2b3e 6979 6e3d 3a54 a8bd
000001a0: 3b01 e83d eaf3 b6bd 083b fb3c 1a8c dabd
000001b0: 441b d73c 1cb0 333e c91a e73d bd12 32bd
000001c0: ed8a 0a3e 30da 9d3c 4dad 51bd c9df 973d
000001d0: 7856 48bd 84f0 713d aa2c 153d 4472 5b3d
000001e0: a70a 9a3d 81fa 3d3e 957d 9fbd ae31 7dbd
000001f0: a692 18be a631 c53c 5f45 103d c814 2bbd
00000200: 8ab5 4ebd c25e 863d 3955 87be 0a0d 1bbe
00000210: d7d1 aa3c 926a 173d afea 2f3d a042 143e
00000220: 0dcb 133d 3da5 033d 1302 d93c 9051 e9bd
00000230: a899 393e 4693 bdbd a2da 26be f3f3 2dbd
00000240: 8ecd 273e 725b 6d3d be08 083d 5913 c63c
00000250: 4fc2 ed3d 5dfb 7abd f9f8 c53d f8ec 4abd
00000260: 821b 123d 9184 0dbd c8bf 00bd d2ee 2c3e
00000270: 1524 563d 966c 0e3d 5126 023d 5576 60bd
00000280: 507d 1dbd 03e9 343d e9cf df3c 6a4f cfbc
00000290: dde5 003e 45de a6bd 1ed2 4fbd c677 81bd
000002a0: 2212 32bd 66d4 93bd 30bc 883d 37b2 e4bd
000002b0: a897 57bd 8bee 483d 5c05 1a3d 3cf0 22be
000002c0: 0a65 ddbd c612 1d3d b2ae 1c3d be19 1fbe
000002d0: e425 b4bc 5870 7b3d 2406 cabd badb c93d
000002e0: 46a5 ee3c d30f b0bd ac0b 85bd 70ea ffbd
000002f0: 6f15 24be 50f6 c9bc ecf1 c0bd 8b60 76bd
00000300: 5c66 513e a6b5 abbc c461 7e3d efe9 00bd
00000310: 160e 563d f8a6 633d 805b 053d e917 15be
00000320: 380c 643d da1a c33d 2c76 7a3d 2ee9 27bd
00000330: 5f18 81bd 9d3d da3d a440 36bd b5ca 383d
00000340: 3f9f e63c 9d7b f2bc f5e4 b0bd ff33 a9bd
00000350: 5411 e63c ba2d c9bd e25c 213e 3816 9fbd
00000360: a31d 2c3e a10b ddbd 785c e5bc 96e5 22be
00000370: 7853 c73c 9394 86be 0f6c 003e 56c4 4cbd
00000380: 7801 a7bc 278f 0e3d 6564 cabd 8ed3 44be
00000390: 7d41 01bd 0523 b7bd b192 123d 17bd e6bd
000003a0: c120 a4bd 4240 113e ce79 3e3e 45ce 4b3e
000003b0: 34d1 183e e627 de3c c700 43bd 2639 633d
000003c0: a654 a03d a346 d93d 61c6 cd3d 459d bb3c
000003d0: 693a eb3d 7553 d93c 9e03 36bd c36e 7fbd
000003e0: fb6e 6d3d b394 d0bd db00 303d a18c 3e3d
000003f0: a9de 51bd bee5 72bd 913b e23c 73e0 9b3c
