checkpoint_actor_solved.pth (torch_old, 446213 bytes, 6 tensors)

fc1.weight f4 [350, 33]
00000000: 525b 133d 5d39 0ebe 6b36 b2bd d910 823d
00000010: c4be 8c3e 6a68 9abd a4db 873d 3931 023d
00000020: b85b 06be 4b85 393d 0401 2cbb 4703 16bd
00000030: 5d46 a8ba 6cfb 15be e82c ecbd 97d5 723d
00000040: 501e 0bbf 125e 99bd 8652 32bd 4cbb e2bd
00000050: 4bbb 34bd 729d 44be 7e97 aa3d 219f f1bd
00000060: 8b2c 9fbd 0804 2c3d fe27 073e 9a53 22bc
00000070: f475 91bd 2078 063b 04d4 66bd 307b 75bc
00000080: 0be6 bcbe 29be f0bb aea2 95bd 76cd a93d
00000090: 763c f1bd 1b7f 8a3d 63cf e43d 85de 4bbe
000000a0: 4f8a 3cbe c46e c5bd 8fd5 323e fa8c 3bbd
000000b0: 1e2f bfbd 00c1 13be 1a54 113e 0040 d23c
000000c0: a8ad 6a3d 953a 85be 8ee8 053e 5744 6a3d
000000d0: 40df f0bd cc72 39bd 9ee0 3e3c 13e4 203d
000000e0: 8743 54be 300e c83c a3c8 28bd cdb2 3fbe
000000f0: 1e90 36bd 48f2 e739 7a30 913c 9f30 303d
00000100: 50b2 4fbb 1ef0 343e d9bf ce3c 0c7a 563e
00000110: c500 8d3d 09a2 833e a8cf adbc 3905 163e
00000120: d88b 6abe a312 82be 2713 dd3d 7ccb 553e
00000130: a153 333c a7c6 1b3e c425 90bc 4605 063e
00000140: 4803 413c 8f54 07bd efb2 64bc 1be7 463e
00000150: 5efd 9f3e a03b 903e f124 433c f6b0 a3bd
00000160: f8bb b2bc 04e7 90bd 1f43 f1bc 057c 9abd
00000170: 2480 b2bd d89e 303c f9a7 1abd aaf8 803c
00000180: c48c 87bd d24a 46bd 09be 013e c239 883c
00000190: 68a1 f4bd 3997 233d 9ad5 f1bd e990 963c
000001a0: fb1c d6bd 750e e2bd cc55 173d d973 ebbd
000001b0: e51c 533e 9c0a 9dbd 9f83 773d 98a2 393c
000001c0: ed9a fd3c 8628 36bd da03 213d be5d a4bc
000001d0: 3362 07ba 6e7d 31be bae5 3abd 3d41 10bd
000001e0: 3ff5 9b3d 067f 6a3a 9b4e 7c3c 6fd8 873c
000001f0: dcae 9c3d 1877 8fbd e4b8 cdbd f14b 47be
00000200: bec4 cb3c 467e 63bb 3578 543d f42d cabe
00000210: ee29 d4bd f7ae 2b3e 7b02 263d 013d 933d
00000220: a9bf eb3e 08c7 953d 4f50 6fbd 7d12 483c
00000230: 4239 203d 598e b4bd c46d 9d3c c532 c3bc
00000240: b1ac e73d 8e10 47be fafd db3c 6f10 493e
00000250: 5335 24be a745 e03e 32dd 97bb a13a d0bd
00000260: 3ad3 4dbd 420e c43c 994b c73c d6e3 923d
00000270: 0c78 743d 87aa 7c3c d185 763e 571d 2abd
00000280: e933 c6bc 1d73 30bd 0308 9e3d 3f66 1a3d
00000290: a888 0cbd 7bc1 2abe 22a5 1ebb 1054 a43d
000002a0: 2755 ae3e 7acc 2fbe 9df4 423e ffc4 1ebe
000002b0: 5caf a1bd d053 f7bd 8179 2cbd 1d64 bcbd
000002c0: b54e febd a970 03bd 97d4 78bd f1ef d1bd
000002d0: 762e 493b 2ee9 13be 6051 833c 654b b2be
000002e0: 37cc e5bd 9db4 acbc ba50 c4bd 3400 f63c
000002f0: 51ef 8bbc ea71 123d 2b3c 783c 12c7 2c3e
00000300: adf6 a5bd a859 a9bd cdb8 143d 8fb0 2f3d
00000310: 9fb3 0e3d 7f3c a5bd ddfe 27be bc90 d6bd
00000320: d211 2e3d 4656 ff3d d853 1a3e b08f d7bc
00000330: 3f02 0fbd a3df d73c c3e2 08be 702b f5bd
00000340: 668f d4bd 8415 2f3d 1cb3 013a 8c3e a83c
00000350: 14f3 993e 2c53 323d 13ce 833c d1ec 3dbd
00000360: 39b7 07be 0b38 0e3e 0212 87bd fea3 343d
00000370: ba41 1dbd 47c9 afbb 5e36 583d 83f6 3fbb
00000380: 6781 303e 2ce6 51bc 042b 14be 600d 673b
00000390: 9fe0 143d a27b 23bd 97f7 b7be 1a1b 8dbe
000003a0: 8e6c ca3d dd51 c03c dcd9 113e 2530 89be
000003b0: b179 7d3e e72e e63d 4353 6bbc 8870 a43a
000003c0: 4a22 673d 6375 54be 0e5e 4e3d afde 973b
000003d0: b03e 0bbe 1963 383e 228c cfbc 5d0f 0ebe
000003e0: 694d 683e 0635 cfbd 33dd b6bb 8977 a43c
000003f0: 0611 8b3d 4119 f23d 6108 8dbc 0970 de3c
0.03597576 -0.1388907 -0.08701786 0.0635087 0.27489293 -0.07539447 0.0663369 0.031785224
-0.13120925 0.045293134 -0.0026245723 -0.03662422 -0.0012838353 -0.14646691 -0.11532003 0.059285726
-0.5434313 -0.074886456 -0.04353573 -0.1107088 -0.04412393 -0.19200686 0.08329676 -0.117979296
-0.07772168 0.041996032 0.1319885 -0.0099076275 -0.07102576 0.0020518377 -0.056354538 -0.0149829835
-0.3689426 -0.0073468876 -0.07306419 0.08291142 -0.1177911 0.06762525 0.111723684 -0.19909103
-0.18412136 -0.096402675 0.17464279 -0.045788743 -0.09335159 -0.14429092 0.14192238 0.025665283
0.057294518 -0.26021257 0.13076994 0.05719408 -0.117613316 -0.045275494 0.011650233 0.03928001
-0.20728885 0.024420828 -0.041206967 -0.18720551 -0.044571035 0.00044240267 0.01772331 0.04301512
-0.0031691976 0.17669722 0.025237964 0.20944995 0.068849124 0.2570956 -0.021217182 0.1465043
-0.22904909 -0.25404844 0.10794669 0.20878404 0.010945232 0.15212499 -0.017596133 0.13087949
0.0117805675 -0.033039626 -0.013958677 0.19424097 0.3124799 0.2817049 0.011910663 -0.07992737
-0.021818146 -0.07075313 -0.029450951 -0.07543186 -0.08715847 0.010780059 -0.037757847 0.015743572
-0.06618646 -0.048411198 0.12670149 0.016629104 -0.11944848 0.03993914 -0.118083194 0.018379645
-0.10454746 -0.11037914 0.036947057 -0.114967056 0.20616491 -0.07668039 0.060428258 0.011330269
0.030957663 -0.04447224 0.039310314 -0.020064231 -0.0005164474 -0.17333004 -0.04562924 -0.035218466
0.07615136 0.00089453196 0.0153996 0.016582696 0.07650539 -0.07005137 -0.10045031 -0.19462563
0.024874087 -0.0034712716 0.05187245 -0.39488184 -0.1035956 0.16765963 0.04052971 0.0718937
0.46044663 0.07313353 -0.058426198 0.012211439 0.039117105 -0.08816213 0.01921738 -0.02382792
0.11312235 -0.19439909 0.026854504 0.19635175 -0.16035967 0.4380314 -0.004634523 -0.101674326
-0.05025027 0.02393258 0.02432804 0.071723625 0.059684798 0.015421516 0.24074484 -0.041531887
-0.024194675 -0.04307853 0.07716372 0.037695166 -0.034310013 -0.1667537 -0.0024207314 0.08023846
0.3404934 -0.17167845 0.19038625 -0.15504836 -0.07894775 -0.12076533 -0.042108063 -0.091987826
-0.12417356 -0.032089863 -0.060749616 -0.10250843 0.003069786 -0.1444442 0.016030014 -0.34823146
-0.112205915 -0.021082217 -0.0958571 0.030029394 -0.017081888 0.03575317 0.015151064 0.16872814
-0.0810369 -0.08269054 0.036309052 0.04289299 0.03483927 -0.08068179 -0.16405816 -0.10476825
0.042497464 0.12467627 0.15071046 -0.026313633 -0.03491425 0.026351755 -0.13367753 -0.11971176
-0.103789136 0.04274513 0.0004947649 0.020537637 0.30068266 0.04353635 0.016089475 -0.046368424
-0.13253488 0.13888566 -0.065952316 0.044101708 -0.03839276 -0.0053645703 0.052786224 -0.002929122
0.17236863 -0.012811225 -0.14469534 0.0035255775 0.036347028 -0.039912827 -0.35931084 -0.2755974
0.098839864 0.023476535 0.14243263 -0.26794544 0.24753453 0.11239415 -0.014363113 0.0012545744
0.056429185 -0.20747904 0.050382666 0.0046347002 -0.13598132 0.18006553 -0.025335375 -0.13873048
0.2268578 -0.10117535 -0.005580568 0.02007653 0.06790356 0.11821223 -0.01721591 0.027153032

fc1.bias f4 [350]
00000000: 0815 19be 0d7b a0bd c3dd 2abe f0e5 e3bc
00000010: 7c0e ef3d 9f5c 1a3c 9328 82bb d9b6 0ebe
00000020: 24f0 34be fe70 29bd 379c 793d ae88 b13d
00000030: a185 03be 1ca1 5e3c d3eb 7f3d d95f dd3c
00000040: d609 1e3e 15a6 d13d 36fa bf3d fc52 ecbd
00000050: 98fc 14be 258e d4bd 5d76 06be 9c62 9bbc
00000060: 5400 8fbd f9ae af3e 3cbd 58bd 6734 eabd
00000070: 8dbc 243e e11e a0bc 90cb 583d 18e7 333d
00000080: 43d4 99bd 9873 f53c cb5f 863e 711f 183a
00000090: 889e 5c3c b6da 4d3d a668 d43d fc40 cf3b
000000a0: 3d6a fe3c 22f5 723e dcac 1abe 4154 78bd
000000b0: 40c6 493d b829 3f3e 88dc 503d eb2a acbd
000000c0: c9a4 c4bd 5823 783d 4cba f2bd 30ba 44bd
000000d0: 2da4 c73d 4c05 eb3d d161 023d 284a 6fbe
000000e0: fcfb 57bd 0021 05bd 5dbe d9bd 8fec 323e
000000f0: c9bf 183e 99ba 413e db63 71be 6182 05be
00000100: 51f1 5d3d 7579 29bd 1c6f f6bd 1c2f f53d
00000110: c42f 93bd a3da ee3c f6d6 e43d 04ba 6a3d
00000120: e720 f7bc b366 83be 0bf9 0dbe bae3 513e
00000130: 1897 f63d 6203 033e d3d7 c5bd 2c31 7f3e
00000140: e069 6b3e 85d6 eebd 79e7 b2bc d5ac f13d
00000150: 1ef3 e93d 7501 a93d b799 e1bd bb41 73bd
00000160: 0f69 5bbc e682 86bd d62c 2b3d 6865 0a3e
00000170: cfde 3a3d 6cd0 42be 7686 ee3d bdfb 8c3d
00000180: e14e 18bc 06ee 21bd d33b 13bd 7ae3 0b3e
00000190: 5b3e e7bc ec63 b5bd 089c 5fbe d214 1e3e
000001a0: 6dc5 5d3d 16cd 22be 7ac9 8bbe 112c 303e
000001b0: c8a3 1ebe 1885 0abd 08b7 583e 4f8d cbbd
000001c0: 68bc 2b3e 9ae6 9b3c 5a93 0c3d 9df9 1ebe
000001d0: 62ff 9fbd c821 d93d 22a8 413d c274 8abd
000001e0: 078e 1ebe eb28 6c3e 8d78 f73d 5e93 9bbd
000001f0: 117f a53d 915c 13bd 6704 c6bd 60df 45bd
00000200: 1bbb ffbc 6d3e 02be f512 013d c6a6 6f3e
00000210: 9318 82bd 73a5 03be e7c4 05bd f126 34be
00000220: fca1 2a3e 8497 2cbd a8d7 463e 4925 9c3c
00000230: fefe c23b afd2 0a3e a5cd 393e c9e4 443e
00000240: 0852 b93c 9cd0 4c3e 1223 8e3d 9457 1b3d
00000250: f723 033e 2bf9 5c3e 5cb5 d53d 4438 493d
00000260: 4c1a b83d 7476 09be 076a 5fbc 4e11 1bbe
00000270: ce32 303e b981 f23c c4a7 f03d 4bf0 753c
00000280: a9d8 203e 0df5 9a3c 3f53 a0bd fc09 32be
00000290: ce9b edbd 52ce 0a3d 32fc 78bd 8207 1b3e
000002a0: a93c 2d3b eea6 583d e741 3abd f00a 3d3e
000002b0: 54f8 8cbd 4018 3ebe ea6e 303d 1d89 2c3d
000002c0: 67b1 803e 040a 1a3e da89 e2bd 07f4 ffbc
000002d0: d29e 3b3e 4d92 b53d 97dc 143d b2af edbc
000002e0: f44a 423e f038 5cbe a6b1 6dbd 605c 2abe
000002f0: 2618 463e 637b 71bd 6d58 1a3e 66fe 04be
00000300: 6c67 933d d90c 093e 91c9 783d 6554 ac3d
00000310: f6a1 85bc 18da a3bd d6e3 43ba f949 17be
00000320: 5fca ddbc df79 ac3d 1b95 f23d db30 31be
00000330: 7ee6 7b3e 56cc 8cbd 4eeb 0bbe f0ed a13d
00000340: 9853 cabd 9926 b33d 6135 e63c 7478 f03d
00000350: 0ed4 e9bd c490 98bd f075 a4bd fbf4 ac3e
00000360: cd97 7c3e fb6c f23d 1bf4 123e dd8c b63c
00000370: b926 cd3c a04e 5c3d 9ff7 f5bd 6a1f 9ebd
00000380: 5d91 d73c e963 fd3d 1bb4 dbbd a6b6 62bd
00000390: 5107 383c 4842 ce3d 91ab 08bd 224d 253e
000003a0: ea33 1f3e 56ae 4b3e b670 22bd 5435 06be
000003b0: 39bd a13e 0638 b53b e7af e4bd fae5 c53d
000003c0: edeb 633d dc8f d3bd 0289 f43d d4cf 4dbe
000003d0: 1ba8 25be b4a7 9a3d 1ba9 b7bd 6e56 f03d
000003e0: 2a2f 3d3e 15d0 79bd 4f53 49be e6a8 1a3e
000003f0: 7b26 b9bd e430 bcbd 4e34 1d3d fb1e 833c
-0.14949429 -0.0783597 -0.16686158 -0.027819604 0.116726846 0.009421497 -0.003972122 -0.13936938
-0.17669731 -0.041367523 0.060939994 0.08668648 -0.12843944 0.013588216 0.06248076 0.027023243
0.1543344 0.10236756 0.09373896 -0.115392655 -0.14549482 -0.103786744 -0.1313109 -0.018967919
-0.069824845 0.3431318 -0.052914843 -0.11435776 0.16087551 -0.019545974 0.052928507 0.04392156
-0.07511189 0.029962346 0.2624496 0.0005803025 0.013465531 0.050257407 0.103715226 0.0063248854
0.031056518 0.23726323 -0.15105003 -0.060627226 0.04926133 0.18668258 0.050991565 -0.084066235
-0.09601743 0.06058058 -0.118519396 -0.048029125 0.09748111 0.1147562 0.031831566 -0.23368132
-0.052730545 -0.032502174 -0.10632012 0.17473052 0.1491691 0.18918838 -0.23573248 -0.13038017
0.054185215 -0.041375596 -0.12032911 0.11971876 -0.07186845 0.029156988 0.11173813 0.057306305
-0.030167056 -0.2566429 -0.13864534 0.20497027 0.120405376 0.12794259 -0.09660306 0.24921101
0.22989607 -0.1166201 -0.02183889 0.11800543 0.11423324 0.08252231 -0.11015647 -0.059388857
-0.013391747 -0.06567936 0.041790806 0.13515246 0.045622643 -0.19024819 0.1164674 0.06883953
-0.00929615 -0.039533637 -0.035945725 0.13660994 -0.028227976 -0.08856949 -0.21836865 0.1543763
0.054143358 -0.15898547 -0.27302152 0.1720431 -0.15492165 -0.033818334 0.21163571 -0.09939062
0.1677109 0.019030858 0.034320213 -0.15524907 -0.07812382 0.106021464 0.047279485 -0.06760551
-0.15483867 0.23062484 0.1208354 -0.075964674 0.080808766 -0.03597695 -0.096688084 -0.04830873
-0.031217149 -0.12719126 0.03151222 0.23403463 -0.063523434 -0.12856083 -0.032658484 -0.1759298
0.16663355 -0.042136684 0.19418204 0.019060748 0.0059508076 0.13556932 0.18144853 0.192279
0.022622123 0.20001453 0.06940283 0.037925318 0.12806688 0.21579425 0.10434982 0.049125925
0.08989391 -0.13424093 -0.013636119 -0.1514332 0.1720688 0.029602872 0.11750749 0.015010904
0.1570765 0.018915677 -0.07828378 -0.17386621 -0.11601983 0.03388817 -0.060787387 0.15139583
0.0026433861 0.05289357 -0.045473006 0.18461204 -0.06883302 -0.18563938 0.043074526 0.04212295
0.25135347 0.15042883 -0.11061449 -0.031244291 0.18322304 0.08865795 0.036343183 -0.029014442
0.18973905 -0.21506095 -0.058030747 -0.16636801 0.1934515 -0.05895556 0.15072794 -0.1298767
0.071974605 0.13383807 0.060739104 0.084145345 -0.01631258 -0.080005825 -0.000747261 -0.14774312
-0.027074037 0.084216826 0.11844846 -0.17303793 0.24599645 -0.068749115 -0.1366398 0.07906711
-0.098792255 0.08747596 0.028101625 0.117417246 -0.11417399 -0.07449487 -0.08030307 0.33780655
0.24667282 0.118371926 0.14350931 0.022283966 0.025042878 0.05378592 -0.120101206 -0.077208355
0.026314432 0.12372572 -0.10727712 -0.05534997 0.011232213 0.10071236 -0.033366743 0.16142705
0.15547147 0.19890723 -0.03965827 -0.1310628 0.31589678 0.00553036 -0.11166363 0.09663005
0.05564492 -0.103301734 0.11940195 -0.20098811 -0.16177408 0.07551518 -0.08967801 0.11735235
0.18475023 -0.060989458 -0.19660686 0.15103492 -0.09040543 -0.09189013 0.03837996 0.016005984

fc2.weight f4 [280, 350]
00000000: 66e1 e4bd 1e7f 5fbe 9ceb 3a3d b607 833d
00000010: cca1 29bc a49b 673d 17ef 84bd 1b04 3b3d
00000020: 0b9b 363d c092 09be 1c93 383e cbb7 af3d
00000030: 144d 2ebd 5387 063e 2c6c 43bd c22c b53d
00000040: 5ea3 dc3d 043d 46be df07 9f3d 70b2 643d
00000050: 10e5 123d 8308 25be 0ec5 b4bd 655d 053e
00000060: 4c83 35bd 4b13 313d 95d1 e3bd c31b c3bc
00000070: 42c1 93bc 3748 923c e953 953d 143e 1d3d
00000080: b38d 1fbe 50c4 c23d d10f 2cbe 3c66 85bd
00000090: ea7a 4ebe beb6 623d e36b 83bd 4441 ea3c
000000a0: f84a 353e 4bb6 08be 81ed ccbd f74e dc3c
000000b0: b329 e2bd ed52 1b3c 7c7d 1f3d 5efb b13c
000000c0: bcb7 af3d 0b5c b43d 4fc6 88bd a083 a0be
000000d0: 07ec 43be ca10 35bd 8e8e 713d 6ce7 9f3c
000000e0: eca5 753d e695 d1bc 4b93 0a3e 1437 6fbd
000000f0: b7ed 283e 48c4 c73a 25a8 a53c 1a55 8b3c
00000100: de1d 303d 1cce 9ebd 7385 cb3c 580b a7bd
00000110: 38de 0e3d 0bd5 4fbd 4019 5e3d a1f8 293e
00000120: 9427 a03d be0a e3bd 9fec e3bb 49b3 dfbd
00000130: ee9c a1be ad3b 083d 94c5 063a be05 ab3d
00000140: b4fb a63d 15c5 eebd c65a 57bd 4bae 2a3e
00000150: 78ea 10be 4979 77be 2582 483d 09a7 11be
00000160: 6edf b2bd 0e98 aa3d 95d5 2ebb 03cd 44be
00000170: f1c5 843d 63cd 3f3d e505 f9bb f6a9 e3bd
00000180: 7391 65bd c700 98bc 2451 6ebc 94a9 dcbd
00000190: 34d6 033e c420 2b3e 2bb7 4ebe ade9 c03d
000001a0: 4c44 133e 8c03 cd3d 223c 6fbe c058 77bc
000001b0: 7387 26be e0e1 92be 1df6 33be 896f 303c
000001c0: 44f3 5d3d a02b 1c3e a904 593d 15fc 723d
000001d0: f5b1 bd3d cf65 443d 0905 a33c 5fb4 c5bd
000001e0: 6718 293d e1a3 9f3d b23d d4be 8890 f4bd
000001f0: 91bf 1f3e 9737 753d 7b51 c63b dfb7 763d
00000200: 3c19 1cbe df73 223e e774 11be 47d4 943c
00000210: 6098 c73d 9b3c 17be 4cd2 89bd 5cef 663c
00000220: 1c73 033d 49d6 f53d ab19 833d 8129 efbd
00000230: 7afe febc c6ce 18be 803d 9f3d b0ea 08bf
00000240: 0d46 9ebd 2249 8c3c 2255 de3c 8936 2b3e
00000250: a0ef aa3d 59f8 6f3c cf59 2e3d a3ba 8e3d
00000260: a97f c13d 7687 413d 1b60 333d d353 ad3c
00000270: 15d9 493c 2df6 d4be 950b 0a3e f44a 42be
00000280: 30f9 45be 6051 f63d 62cd c8bd db4c ce3d
00000290: 9e34 11be 54f6 e03d 619f 3fbe 1bb7 ab3a
000002a0: 38ae 9fbb ce2c b83d ab54 d2bd 27d0 f9bc
000002b0: 7c3c 16be 317e dcbd 417c cabd 53bf 983d
000002c0: 4fed 57bc 5a7a 74be 6962 d4bd 4ed7 5dbe
000002d0: ec76 38bd fd29 90bd 2d29 f33c 8784 24bd
000002e0: e7b4 e93c 1078 2dbd 959c 81bd 3dad 7abe
000002f0: dfcf a13d f94e d33d 61ef 153e 8866 acbd
00000300: 19b8 41bd 2ff2 afbd 3151 3ebe 025a 8ebd
00000310: a489 89bd 2e2f 0f3e ca8b b93d e5ae 5bbd
00000320: 34fc b63a 5f37 47bd 9907 06be 1145 653e
00000330: fb81 a4be ce38 153e af2a a53d 7433 b53d
00000340: d2b4 cb3d 2eca 813d 04a4 bb3c c8fa 05be
00000350: 5bfb ad3d 01af 10be 6f98 6fbe 425f 7bb9
00000360: 8f9c ac3d 9f55 9dbe a801 0d3d 285e 06bd
00000370: cc3e db3d 15f6 123e a761 2d3d 0012 053e
00000380: 1162 f63c 3ccc 43be 35c9 52bc 7912 1c3c
00000390: 58f7 4dbc 2ee5 7dbd e1fb 6dbd 1c71 843c
000003a0: e45a 67be f3c8 4f3d 252d 06be dd57 3f3d
000003b0: 91bf c33c 4118 8a3d 7631 39bc b6dc d2bc
000003c0: 590e 19bc 25fa 7cbd 4491 48be dc6c 143d
000003d0: af33 ad3d 0913 fdbd a16e 343e f52e 38bd
000003e0: fa0b 93be b71d 6c3d 19c6 0fbd f2ac 38be
000003f0: 44b7 f2bd 643d 183e d2b1 253c e503 ae3d
-0.11175804 -0.21825835 0.04563485 0.06397955 -0.010353517 0.056544915 -0.06490915 0.045658212
0.044581454 -0.13434887 0.18024868 0.085799776 -0.042553976 0.1313756 -0.047710583 0.088464275
0.10773347 -0.19359213 0.07765173 0.055834234 0.035862982 -0.16116528 -0.08826648 0.13023908
-0.044314668 0.04323129 -0.11123959 -0.023816949 -0.018036488 0.0178567 0.07291395 0.03838928
-0.15581398 0.095101 -0.16802908 -0.0651364 -0.20164075 0.055350058 -0.06417062 0.028595574
0.1770438 -0.13350789 -0.10006238 0.026893122 -0.1104311 0.00948022 0.03893803 0.021726307
0.085799664 0.08806618 -0.06678449 -0.31350422 -0.19133006 -0.044205464 0.05897384 0.01951953
0.05997269 -0.025584172 0.1353275 -0.058402136 0.16496931 0.0015240991 0.02022178 0.017008353
0.042997234 -0.07754156 0.024843907 -0.081564605 0.034879893 -0.050740283 0.0542233 0.1659875
0.07820049 -0.11086033 -0.0069556977 -0.10922868 -0.3156504 0.033260036 0.0005141136 0.083507046
0.08153477 -0.11658684 -0.052576803 0.1666805 -0.14151943 -0.2416736 0.04895224 -0.14223875
-0.08734022 0.083297834 -0.0026677598 -0.19218831 0.06483067 0.04682673 -0.0075995796 -0.11116402
-0.056046914 -0.018555058 -0.014545713 -0.10774532 0.12874681 0.16711718 -0.2018706 0.0941957
0.14381522 0.10010442 -0.23362783 -0.015096843 -0.16262607 -0.28687954 -0.17574354 0.01076878
0.054187074 0.15251017 0.05298296 0.059322435 0.09262458 0.047948655 0.019899862 -0.09653544
0.041283038 0.07794929 -0.4145332 -0.1194163 0.1560042 0.059867468 0.0060521937 0.060233947
-0.15244001 0.15864514 -0.14204751 0.018167628 0.0974586 -0.14769213 -0.06729564 0.014095154
0.0320922 0.12003762 0.0640138 -0.11677838 -0.031127203 -0.14922628 0.07775402 -0.53483105
-0.07728205 0.017124716 0.027140204 0.16720022 0.08346486 0.014646613 0.042566117 0.06969192
0.09448177 0.047248326 0.043792825 0.021158135 0.012319823 -0.41594067 0.1348098 -0.18973905
-0.19333339 0.1202724 -0.09804799 0.10073253 -0.14180228 0.10984483 -0.18713142 0.0013100834
-0.0048730634 0.08992921 -0.102700554 -0.030494763 -0.1467151 -0.107662566 -0.09886981 0.07458367
-0.013179137 -0.23874798 -0.10370333 -0.21664163 -0.045035288 -0.07039259 0.02968272 -0.04016545
0.028528644 -0.04235083 -0.06328694 -0.24480148 0.079009764 0.10317797 0.14642097 -0.08417994
-0.04729471 -0.08591115 -0.1858566 -0.069507614 -0.06715706 0.13982841 0.09059866 -0.05363359
0.001396066 -0.04863679 -0.13088836 0.22389628 -0.32130417 0.1457245 0.08064782 0.088477045
0.09946598 0.06337391 0.022905357 -0.13083947 0.08495208 -0.14129259 -0.23397993 -0.00023972712
0.08428299 -0.30729386 0.034425408 -0.03280464 0.10705337 0.14351685 0.042329457 0.12995148
0.030076059 -0.19120878 -0.012865354 0.009525889 -0.012571178 -0.06198614 -0.05810154 0.016167216
-0.22593266 0.05072875 -0.13103159 0.046714652 0.023895057 0.06742907 -0.011303296 -0.025740009
-0.0093418 -0.061761994 -0.19586664 0.03623663 0.084571235 -0.12357146 0.17620327 -0.044966657
-0.28720075 0.057645526 -0.03510103 -0.18034723 -0.118513614 0.14867169 0.010113196 0.084968366

fc2.bias f4 [280]
00000000: 1812 8fbd 16ef 493d 9f2b 6cbd ddfb 1d3d
00000010: e8c4 1c3d 9f89 9b3d 75b7 fcbc 33fa f13c
00000020: 46f7 c13d 3d7d 823c 5fd0 0bbd de2d d13d
00000030: cdc7 e43d 2ae3 babd 8de6 c03d 0a9c 98bc
00000040: 2f72 08bc a79b 65bd 120f 6c3d cbcc 203d
00000050: 1c18 883d f283 03bd 987d 8cbd e0da bdbd
00000060: 921d 14bc 8e9d b73d 27b8 fd3b 1237 efbc
00000070: 41dc efbc 23b0 e73c fe22 703d d4d9 b4bc
00000080: d347 013c c3cf 263d 3719 9c3d ac0d b13c
00000090: 7c1b e0bb 52a9 26bd b217 24be 1da0 923d
000000a0: 8b0e 983d 22b4 51bd 091e a43c 83be 013e
000000b0: 2945 15bd 51d8 053d 434e 37bc 9cef 903d
000000c0: 6abe 9b3c 6298 9e3d 0c3a 5bbc 1c16 223d
000000d0: 1483 583d 51cd b5bd 8251 0d3d fef8 713d
000000e0: b16d 5e3d 60d0 de3d 906f 18bd 5050 6c3d
000000f0: f0b2 783d 3df2 843d 637e b3bb f2e4 7b3b
00000100: 3407 b73c 809f 103d 6a8e 48bd d203 db3b
00000110: ea3d e63c ae8e 86bd 5c46 323b 4628 b0bd
00000120: 514d 88bc 4b61 973d 859d 48bd 75ae 7e3c
00000130: 41d3 8b3d 0ff9 c3bd a691 863d 4953 943c
00000140: 9973 8a3d 0205 14bd ed44 303d 36ec c6ba
00000150: 9077 443b e395 aa3c 0fe0 75bc 013a cc3c
00000160: 947a fe3c 7108 fc3c 4ab2 413d 2fc9 513d
00000170: d41d a93c fadf fa3b 6bed a83c 0a7f c9bd
00000180: b733 17bd 17a0 e8bb 326d e23d 50d5 783d
00000190: c84a c63c 8428 023d 82d6 cb3c 2480 a83d
000001a0: 3982 15bd 2b6e be3c cbb0 8c3b 314b b7bd
000001b0: 9ed5 bfbd 6160 ff3c ff63 12ba 057f 073c
000001c0: f01e 5e3d 7093 013e d8f6 2f3c 928b 063c
000001d0: 3699 03bd b293 173d 11f6 c83c 19b9 d93c
000001e0: 7c33 1abd 2985 583d bb36 74bd 1b8b 1ebc
000001f0: bdff 4fba c4a3 9b3d 14de 113d e2f6 743c
00000200: c493 a4bc a674 3b3b 4a0a 9b3c da5d 4fbd
00000210: f4f1 d93c 5ef5 f4bb 5f07 3e3d 3315 2d3d
00000220: 1890 a0bd caf5 803c 871d 73bd 243d fd3b
00000230: b029 cebb ef81 db3c 1397 7ebd 0c3b 37bd
00000240: 30bd 3a3d 1329 9638 6ea4 a1bc 1c0b 363d
00000250: 90fe f2bc 136e 793d d89a 9f3d e793 4e3d
00000260: a90a 4a3d e498 923b 8a32 1e3d b614 393c
00000270: 04e2 6a3b cb60 1c3e d03a dd3c e288 97bc
00000280: 2611 c5bc 4f17 f83c 8579 e83c 220c 3abd
00000290: 9366 343a 4b9a ce3b 283c 9b3d f719 873b
000002a0: dfd5 383d 72fe e2bc ea68 fc3c 2206 8bbd
000002b0: 9c0c e8bb 897d 383d ac11 263d 4232 b23d
000002c0: c665 823d ae6b 6ebd 785d de3d 7c07 693d
000002d0: cf8e 4037 3faf 17ba 9fa2 123d d919 1fbd
000002e0: c031 2a3b 4cef 87bd 22b1 523d 3534 b0bc
000002f0: 13e6 753c 5dde 80bd 05c3 1f3c 1cdf 90ba
00000300: 8d77 d63a bd27 cdbb b0a4 53bd 5942 02bd
00000310: ecc4 18bd 71ab d33b 1735 ce3d 032f 163d
00000320: 63c4 613d 3e47 84bd 9843 113d 75d7 bebc
00000330: 5922 a43d 965c d8ba 7a8d 4c3c 8d0a 093d
00000340: 2cd8 583d a57c 993c e83a 803d 1234 063d
00000350: 3d9e 1ebd 14db 483d 761a 7cbb 7827 68bd
00000360: c611 2bbd 4bb5 803d 5f86 3a3c 4775 8b3d
00000370: f3e1 bcbc 09ba 903d fe12 9a3d 50b7 ba3d
00000380: f99f 133d 08a3 2f3d 7623 243d f510 2abd
00000390: f779 093d 863a cd3d 7924 dc3d f17a 753d
000003a0: d4b3 7a3d 6c31 d93d 5b22 0a3d 47db 373d
000003b0: 3ca6 f13c 895e ae3d 08b2 7c3d 9910 643d
000003c0: f9c6 133e 6514 a7bd a7d1 d8bd 752b 733d
000003d0: cfe0 c4bc fc61 4c3d f3a6 a03d 3ada 8abb
000003e0: 079b aa3c 0f4b 233d bb14 1b3d 4ef6 50bd
000003f0: 7a37 343d a68b 67bd bed7 003d 1b48 0dbd
-0.06985873 0.049300276 -0.057658788 0.038570274 0.038273722 0.075946085 -0.030849198 0.02953825
0.09470992 0.015928859 -0.034134265 0.102138266 0.111709215 -0.09125359 0.09418974 -0.018629093
-0.008328005 -0.056056645 0.05763156 0.039257806 0.066452235 -0.032108255 -0.068598926 -0.09270263
-0.009040253 0.08965598 0.0077429 -0.029201064 -0.02927983 0.02828223 0.05862712 -0.022076525
0.007890659 0.04072548 0.07621997 0.021612965 -0.006839214 -0.04068882 -0.16024664 0.071594454
0.07424649 -0.05119718 0.020033853 0.1267033 -0.03644291 0.032677 -0.011188093 0.07076952
0.019011695 0.077439085 -0.013380539 0.039571866 0.05285938 -0.088770516 0.03450156 0.059075348
0.05430383 0.10879588 -0.03721577 0.05769378 0.060717523 0.06491516 -0.005477713 0.0038436023
0.022342302 0.03530836 -0.04896394 0.006683805 0.028105695 -0.06570183 0.0027202582 -0.086014315
-0.01663843 0.07391604 -0.048978347 0.0155445235 0.06827403 -0.095689885 0.06570749 0.01810612
0.0676033 -0.03613759 0.043034483 -0.0015176598 0.0029978491 0.020823425 -0.015007033 0.024930002
0.03106431 0.030765744 0.04728917 0.051217254 0.020644106 0.0076560946 0.020621022 -0.09838684
-0.036914553 -0.0070991623 0.110559836 0.060750306 0.02420558 0.03177692 0.024882559 0.08227566
-0.036501143 0.023245892 0.0042935363 -0.089498885 -0.09366916 0.031173887 -0.00055843586 0.00827003
0.054228723 0.12653899 0.0107400045 0.008211987 -0.032128535 0.037006088 0.024531396 0.02657752
-0.037646756 0.052861366 -0.059622508 -0.00967672 -0.00079345313 0.07599595 0.03561218 0.01495144
-0.020089991 0.0028603463 0.018925805 -0.050626613 0.02660463 -0.007475539 0.04639375 0.042256545
-0.07839984 0.015742201 -0.05935433 0.007728236 -0.0062915906 0.026795356 -0.062155794 -0.044734046
0.04559058 7.160208e-05 -0.019731726 0.04444419 -0.0296624 0.06089599 0.07793206 0.05043402
0.049326573 0.0044737924 0.038622417 0.011296442 0.0035840282 0.15271299 0.027005583 -0.018497888
-0.024056029 0.030284552 0.028378258 -0.045421727 0.000688174 0.0063050142 0.07579833 0.0041229683
0.04512584 -0.02770922 0.030811746 -0.06788279 -0.0070815813 0.045041595 0.040544197 0.08700992
0.06367068 -0.05820816 0.108576715 0.056891903 1.1477342e-05 -0.00057863066 0.03579962 -0.03884301
0.0025969595 -0.06637439 0.05143846 -0.02150927 0.015008467 -0.062924124 0.009751086 -0.001105282
0.0016362533 -0.0062608407 -0.05167073 -0.031801555 -0.037297174 0.0064596464 0.1006872 0.036665928
0.05511893 -0.06458901 0.035464853 -0.023296097 0.08014364 -0.0016507085 0.0124849025 0.033457328
0.052940533 0.018736193 0.062612355 0.032764502 -0.038725127 0.049037054 -0.003846792 -0.056678265
-0.041764997 0.06284579 0.011384576 0.06809478 -0.02305696 0.070667334 0.07523154 0.09116995
0.036041234 0.042880088 0.04007288 -0.041520078 0.03356358 0.10020928 0.10749144 0.0599317
0.061206654 0.106051296 0.03372417 0.044886854 0.029498212 0.08514125 0.06169322 0.05567989
0.14431371 -0.08158187 -0.10586863 0.059367616 -0.024032978 0.049898133 0.07844343 -0.0042374404
0.020825876 0.039866503 0.037861567 -0.051016144 0.04399822 -0.056529664 0.031455748 -0.034492593

fc3.weight f4 [4, 280]
00000000: b791 2fbf 4a52 4ebe fdad 603d 28ea 8d3c
00000010: b97a 393e 3803 aa3e e5ae 963e b3fb b23d
00000020: 3763 8b3d d496 d13c fafc ecb7 593c 2dbe
00000030: b34a 623e 3c3a 0bbe 3a00 c93b dbf6 c5bc
00000040: 54a9 cd3e d005 27bf 5199 8bbd 1619 81bc
00000050: f39d 45be 71da 563f f29c 4cbd ca49 123f
00000060: 814c 063f 318f 3cbe b5ee c3be eef0 373d
00000070: 45fb 5ebd 934f 0f3f eeae 1c3e 97eb 47be
00000080: 9ac2 2bbe c220 b5bd 64e3 ac3c b6c4 cfbe
00000090: de51 403e 0892 6ebc 161a e53e a253 133e
000000a0: 2a06 153c 352d 923d a61b 4ebd e9b4 283c
000000b0: a9a9 d6be 471a d7bd a1ca 7b3e 98a5 923a
000000c0: da5b 01bd fa93 db3d ffa0 8bbd 96c3 8c3e
000000d0: 7e0b 16be b2c0 d83e b360 13bd 65f0 60bd
000000e0: 128b ea3d 1b4d 253d a466 2b3f 278d b8bd
000000f0: 41da ba3e 51b9 2abd ee4b 8c3d 08d6 dbbe
00000100: 205f 6bbe d410 763d 9bd3 ffbe 7334 a9be
00000110: b614 073f 42d6 4f3d 27fd 423e 6666 87be
00000120: e12b 903c 9986 5abc 9a89 fe3d b515 adbe
00000130: 338c c3be 2fa5 21bd ab4d ffbd 6dfe 6cbc
00000140: a453 10be f5a2 4ebe 2ea2 873c c2e1 073d
00000150: 5041 8c3e fafc 8c3e fae3 193f 0dc5 03bf
00000160: 73a6 823e 6ddf 17be d873 d53e 7329 07bb
00000170: f858 8d3e dbfb 923e 0177 0abe 3c2c 423d
00000180: 1cb9 003e 2b0a a6bc 9648 063f 98be 12bf
00000190: b88a a43e 1766 53bd 3487 c7bc 0c6c 83be
000001a0: e454 f2be f724 07be c5c4 33bd 8458 2e3f
000001b0: 4d03 8abd b62b 19be da33 19be c976 ee3d
000001c0: 2a31 963e 7ece debd dabf 223e ace3 dbbe
000001d0: dfef 4b3d 74b1 b3be 3101 60be c55a a7be
000001e0: cdbd 3ebf 5f70 a53e c2f7 d73d 981f 713e
000001f0: f938 66be 117c a9be fbc8 513d 706c 92be
00000200: 35c1 7cbe 2c2e 043e aa14 6abe f4d6 f5bd
00000210: 6f7f e23d 4154 f93c a6dc a53e 4bfb 17bd
00000220: 0fef 8dbe 5ec5 15be 88e6 283f 682f 37bd
00000230: fed4 2b3f e0ea 11be 0ccf fd3d 7a15 34be
00000240: f7f9 253e ba1f f9bc edf5 88bd 5a23 053f
00000250: 5d6f ac3d 4bc8 e73b 3a29 c8be 438c 37be
00000260: aaab 12bf fd59 613f 7c63 a33d b381 e4bd
00000270: 18b2 fbbe 3c86 a83d 7b7e 67bd efb0 dd3e
00000280: a21b a03e baf7 e4be 58ff 333e 61f3 073f
00000290: 2b91 0fba 5fd2 8ebe 8e74 e13e c3eb 3fbe
000002a0: ea99 59bc ddc7 76be 27dd 843e e05e a4be
000002b0: f1f1 a5be 3e65 803e 2bac e53c be66 5bbc
000002c0: 84a0 3f3f 63ea 1dbe 07db bd3d 8041 45bd
000002d0: 1fc0 84bd 7910 d0be a369 bc3e a662 aabe
000002e0: 4291 31be 7a2a c43e e4f6 2abe a105 303d
000002f0: af03 5bbc 6944 963e 12be bebe 430e 5c3d
00000300: 1475 10bf 2708 d2be 0a62 84be 66b9 5ebd
00000310: 00c7 f03d f79d 39be 33d7 3fbc 1584 babc
00000320: acab 093f 3938 79bd 303f 093c b90e 97be
00000330: f387 2cbe 8c49 823c 749b 173e cfac db3c
00000340: d43d a0be 6d76 adbe c32f 89be 87f5 0ebf
00000350: 6205 dc3e 42ce 9a3e fabd 65be 1065 193f
00000360: 837e 09be 396e b4bc 1d4f b8be 824f 77be
00000370: cff0 163e 9208 43be 1684 89bb 8ba2 933e
00000380: 1ab4 253f cba7 3e3e b073 5ebe f56b 41be
00000390: 0353 ac3e dcd8 a8bd ed08 af3d ee9f b63e
000003a0: bd1d 35be f1d5 4a3c 60d1 adbd 8f90 8fbd
000003b0: 5f9f 6cbd b0f3 29be efab 513e 0530 033d
000003c0: feaf 6bbd 8bf1 da3b 2df3 513e 7d6f df3e
000003d0: a921 45bb 596b 7cbe 6935 4abe 07b4 2fbe
000003e0: 66ff b1be b2b8 a4be 3c47 7b3e 95de 9cbd
000003f0: c417 1ebe 7d8a 363f 5ed6 9fbe bb3a cabe
-0.6858172 -0.20148578 0.05485343 0.017323568 0.18113221 0.3320558 0.2943031 0.08739414
0.06806033 0.025584616 -2.8251194e-05 -0.16917552 0.22098808 -0.13596433 0.00613406 -0.024165561
0.4016825 -0.65243244 -0.06816352 -0.015759032 -0.19298534 0.83927065 -0.049954362 0.57143843
0.52460486 -0.18413998 -0.38268057 0.044907503 -0.054438848 0.55980796 0.15301105 -0.19523464
-0.16773453 -0.08844139 0.021104522 -0.40579766 0.1878123 -0.014561184 0.44746464 0.14387372
0.009095708 0.07137529 -0.050319336 0.010297039 -0.41926315 -0.10503059 0.24589016 0.0011188267
-0.031581737 0.10721584 -0.06817817 0.2749297 -0.14652821 0.42334515 -0.03598089 -0.054916758
0.11452307 0.040356737 0.6695349 -0.09011298 0.3649464 -0.041680638 0.0685042 -0.4293673
-0.22985506 0.060074642 -0.4996613 -0.33047828 0.5276598 0.05074144 0.19041882 -0.2644531
0.017599048 -0.013337755 0.12428589 -0.33805624 -0.381929 -0.039464172 -0.12465986 -0.014464957
-0.14094406 -0.2017935 0.016556825 0.033174284 0.2739358 0.27536756 0.6011349 -0.5147255
0.25517616 -0.14831324 0.41689944 -0.002062407 0.2760694 0.28707775 -0.13521959 0.047405466
0.12570614 -0.02026852 0.5245451 -0.57322073 0.32137084 -0.051611032 -0.024356462 -0.2566837
-0.4733039 -0.13197695 -0.043888826 0.68103814 -0.06738911 -0.1495808 -0.14961186 0.1164375
0.29334384 -0.10879229 0.15893498 -0.42947137 0.049789306 -0.35096323 -0.21875454 -0.3268644
-0.74508363 0.32312295 0.10545303 0.23547208 -0.22482671 -0.33102468 0.05121706 -0.28598356
-0.24683078 0.12908238 -0.22859445 -0.1200389 0.11059462 0.030435683 0.32394904 -0.037104886
-0.2772145 -0.14626071 0.6597676 -0.044722944 0.67121875 -0.14249754 0.12393007 -0.17586318
0.16208635 -0.030410636 -0.066875316 0.5200707 0.08419678 0.0070734373 -0.39093953 -0.179246
-0.5729319 0.88027936 0.079779595 -0.11157551 -0.49159312 0.08228728 -0.056517106 0.43299052
0.31271082 -0.4472025 0.17577875 0.5310574 -0.0005476649 -0.27894875 0.44034237 -0.1874228
-0.013281325 -0.2409968 0.25949976 -0.32103634 -0.3241115 0.25077242 0.028036198 -0.013391195
0.748543 -0.15421443 0.09270292 -0.04815817 -0.06481957 -0.40637568 0.36799344 -0.33278388
-0.17340568 0.38313657 -0.16695744 0.04297412 -0.013367577 0.29349068 -0.37254387 0.05372454
-0.5642865 -0.41021845 -0.25856048 -0.05437603 0.11756706 -0.18126665 -0.011709022 -0.02276806
0.53777575 -0.060844634 0.0083768815 -0.2950342 -0.16848736 0.01590421 0.14805394 0.0268158
-0.3129717 -0.33879414 -0.26794252 -0.55843395 0.42972857 0.30235487 -0.22435752 0.59919834
-0.13427167 -0.022025215 -0.3599786 -0.24151424 0.14740299 -0.19046238 -0.004196654 0.28834948
0.6472794 0.18618695 -0.21723819 -0.18888839 0.33657083 -0.08244488 0.08546624 0.35668892
-0.17687126 0.012380109 -0.08487201 -0.07009994 -0.057769176 -0.16596866 0.20475744 0.032028217
-0.057540886 0.006681626 0.2050292 0.43639746 -0.0030079877 -0.24650325 -0.19746937 -0.17158519
-0.34765166 -0.3217216 0.24538893 -0.07659642 -0.15438753 0.71305066 -0.31218237 -0.39497933

fc3.bias f4 [4]
00000000: 12a8 8bbd 3697 2b3d ca6a 2cbc 81a2 6abd
-0.06819166 0.041892253 -0.010523507 -0.057283882
